car_model.pth (torch, 220820 bytes, 10 tensors)

fc1.weight f4 [128, 18]
00000000: d3ad 08be e863 fd3c 3b85 5e3e 0ac0 6dbe
00000010: a501 5fbe ffff 493e e2cd a53d 9e15 9d3d
00000020: 55b8 053e 803d 14bc 742c 533d 669f 1bbe
00000030: 1ed0 aabd 89cf 223e 9f3a 533e c061 663c
00000040: c3f7 2a3e 7c27 7e3d a8df 2abe 10ac 77bd
00000050: 4088 ddbd 00db a9bd b98e 4f3e 8be2 623e
00000060: 9a52 24be 6870 e1bd ffd8 573e 2d33 023e
00000070: ed18 673e 8764 0fbe b853 8f3c 00c2 0dbe
00000080: cce6 2ebd 30da 553c 0c9f 34be 3b71 3d3e
00000090: 9b35 e5bd ec26 5fbd ca89 923d e055 b1bd
000000a0: 000e 313c ab20 4e3e eb35 593e 8096 293c
000000b0: 5a04 aa3d 8eaa b1bd b8b5 c2bc ead1 fa3d
000000c0: 0742 003e 8a48 5cbe c6a2 bfbd 9f04 663e
000000d0: a869 cfbc d0f8 cabc 8381 04be 1e0d 9b3d
000000e0: 68d5 82bd 14f8 6c3d 20b5 35bc eb85 6a3e
000000f0: a08c 52bd acca 303d 0edf dabd 5bdc f5bd
00000100: 22f0 a53d 401b 0cbe d848 65bd 3099 32be
00000110: 24d5 62bd f195 3d3e 8467 243d 5ce8 9abd
00000120: ce4a de3d e0cc 4ebd 8ec9 cbbd 6a4e acbd
00000130: e340 39be d20b a33d d507 eabd a897 21be
00000140: 357e 683e f1a4 f0bd a08f 9cbd 7d7d 00be
00000150: cb98 0ebe b193 f8bd 0ba1 623e 1ea7 a33d
00000160: d421 213d 2d58 413e 885f 6fbd 586d efbd
00000170: fcfd 173d 54b1 1e3d ea64 1abe 082d d53c
00000180: 5cd1 43bd dd65 4a3e 3009 233c 88b0 bcbc
00000190: f835 2fbd e9f2 533e 14c2 37bd 890f 163e
000001a0: 4c58 79bd 5135 393e ac80 46be b47b 293d
000001b0: c56a 64be d5e3 52be 381d d2bd b0bb cebd
000001c0: 727c 70be ff5a 70be 2758 04be 8ac2 88bd
000001d0: 4081 0a3c e86c e63c 18fd d7bc 55ec 123e
000001e0: cd6c 58be 057b fabd a653 99bd 841d 033d
000001f0: 66cd d03d c241 09be c6dd 18be 743a 763d
00000200: 689e c63c dc97 08be 43e3 633e 1d14 2b3e
00000210: db7e 4e3e 6edb cd3d fb17 3d3e d403 5fbd
00000220: 80f7 d73a f12c 403e 8e86 df3d bc82 2a3d
00000230: 5441 033d 3000 663c 280f e8bc 18fc 56be
00000240: a455 393d f648 f83d 5877 e53c 889b 41bd
00000250: 1f63 633e 0c87 63be 32a2 bd3d b143 1b3e
00000260: 6466 123d 2ccf 1a3d c331 493e 16f1 a33d
00000270: 8aa8 90bd 01c9 3e3e 46ef 8e3d 1c81 713d
00000280: b91b 1a3e f075 2ebc 9379 2e3e 90f0 11be
00000290: a73a 2abe 24ea 013d bf6a 583e b298 a8bd
000002a0: 5e65 c2bd c079 60bb 885d f9bc 231a 323e
000002b0: 6190 3b3e d6aa 0dbe 05ad 19be f430 debd
000002c0: cf34 f2bd 5b75 403e c860 c5bc f8c1 e43c
000002d0: 89d7 643e f4aa 10be e415 5ebe 3564 403e
000002e0: 92ef 13be 60f3 72bc afc0 553e fcbb c7bd
000002f0: 547f 46be 75e7 4e3e b741 403e bbac 26be
00000300: 5ec5 a03d e414 1e3d e623 2dbe e613 44be
00000310: b595 5ebe 14c3 473d 07fe 053e 0245 c6bd
00000320: 64d7 1bbe 2c6b 56bd 4e95 05be e0a9 33bc
00000330: e56e 243e 7e29 993d fbcc 27be be21 ad3d
00000340: 66fd f63d 031a 6e3e 181e 4cbe be4c 2bbe
00000350: 4777 003e 3891 a73c e94f 5fbe e5ef 13be
00000360: ece5 143d b0eb 21be e191 3e3e 96c7 4dbe
00000370: c04a 123c b4a9 32bd c289 9b3d a5a6 1a3e
00000380: 9138 543e 8d06 52be 3cbf 793d 0012 79ba
00000390: 3b91 523e 42e4 32be 4053 1abe 819e 533e
000003a0: 0e82 e53d d0d2 5ebd 1a46 3cbe 0e11 25be
000003b0: 15d4 223e 7285 65be dcfd 39be 5813 f9bc
000003c0: ae5b 973d bdef 07be 74dc 753d ba63 35be
000003d0: 1f03 4cbe 981b 90bc f04c 473c 7e93 cf3d
000003e0: 12e4 c23d 90ac 84bd 945f b4bd e77e 523e
000003f0: f882 01be 3994 513e bca6 7c3d 7424 24be
-0.13347559 0.030931428 0.21730511 -0.23217788 -0.21777971 0.19726561 0.0809591 0.07670139
0.13058598 -0.009047866 0.051556066 -0.15197524 -0.083404765 0.15899481 0.20627831 0.014061391
0.16696076 0.062049374 -0.1668688 -0.060466826 -0.10817003 -0.08293724 0.20269288 0.22156732
-0.16047135 -0.11007768 0.21078871 0.12714835 0.22568102 -0.14003192 0.017495975 -0.13843536
-0.042700574 0.013052508 -0.17638797 0.18500225 -0.11191865 -0.05448048 0.071551874 -0.086589575
0.0108065605 0.2012965 0.21211974 0.010350823 0.08301611 -0.08675109 -0.02376829 0.12247069
0.12525187 -0.21512046 -0.093572184 0.224627 -0.025318936 -0.024776846 -0.1294003 0.07570861
-0.0638836 0.057853773 -0.011090547 0.22902648 -0.05140364 0.043162033 -0.106870756 -0.1200492
0.08102442 -0.1368227 -0.055977672 -0.17441249 -0.055379048 0.1851423 0.040137783 -0.0756385
0.108541116 -0.050488353 -0.09950553 -0.08413394 -0.18091159 0.07961239 -0.11427275 -0.15780509
0.22704394 -0.1175021 -0.07644582 -0.1254787 -0.13925473 -0.12137545 0.22131746 0.079908594
0.0393389 0.18881293 -0.058440715 -0.116907775 0.037107453 0.038743332 -0.15077558 0.02602245
-0.047807083 0.1976542 0.009950921 -0.023033395 -0.042776078 0.20698132 -0.04486282 0.14654364
-0.060875222 0.18086745 -0.19385022 0.041377738 -0.22306354 -0.20594724 -0.10259479 -0.10094392
-0.23484972 -0.23472212 -0.12924252 -0.066777304 0.008453667 0.028128102 -0.026365802 0.14347966
-0.21135254 -0.12230495 -0.07486658 0.03201057 0.10195427 -0.13403991 -0.1492835 0.06011434
0.024245456 -0.1333918 0.22254662 0.16706891 0.20165579 0.100516185 0.18466179 -0.05444701
0.0016476959 0.18767144 0.10914336 0.041628584 0.032044724 0.014038131 -0.02832754 -0.20994604
0.04524769 0.12123291 0.02801101 -0.047267467 0.2220578 -0.22219485 0.09259452 0.15162541
0.03574218 0.03779523 0.19647889 0.08004968 -0.07063396 0.18631364 0.069792315 0.05896102
0.15049638 -0.010648236 0.17038564 -0.14251924 -0.16623937 0.031717435 0.2113447 -0.08232249
-0.094919905 -0.0034252256 -0.030440107 0.17392783 0.18316795 -0.138347 -0.15007408 -0.10849181
-0.11826479 0.18794768 -0.024094 0.027924523 0.22347845 -0.14127713 -0.21688038 0.18788226
-0.14446858 -0.014828533 0.20874284 -0.09752652 -0.1938451 0.20205481 0.18775068 -0.16276829
0.07850145 0.03859414 -0.16908225 -0.19148216 -0.21736796 0.048770025 0.13085185 -0.09681131
-0.15218884 -0.0523483 -0.13045236 -0.010965794 0.16057928 0.07478617 -0.16386788 0.084537014
0.12060051 0.2325211 -0.19933355 -0.16728494 0.125455 0.020454988 -0.21807827 -0.14446981
0.036352083 -0.15812564 0.18610336 -0.20095667 0.008928955 -0.043618873 0.075946346 0.15102632
0.20724703 -0.20510311 0.06097339 -0.00095012784 0.20563214 -0.17469886 -0.1507082 0.20665933
0.112064466 -0.054400265 -0.18386117 -0.16119787 0.15901215 -0.22414187 -0.18163246 -0.030404732
0.073905334 -0.13275047 0.060024694 -0.17713824 -0.19923066 -0.017591283 0.012164339 0.10135554
0.09516157 -0.06478226 -0.088072926 0.20556222 -0.12647617 0.20466699 0.061682448 -0.16029531

fc1.bias f4 [128]
00000000: ce58 55be 3039 fbbc e397 003e 3522 32be
00000010: 4cce a1bd d584 0ebe bacd f63d 2713 6d3e
00000020: 35f0 3bbe e4a1 4ebd 0039 013a f68b 04be
00000030: 20f9 e13b 2f55 323e e479 1dbd 84a0 80bd
00000040: 989d e5bd dcf0 28bd f8c9 853c ee5c f73d
00000050: d0a3 0ebe dd12 1f3e e439 31bd 690a 5b3e
00000060: 8fa7 4c3e 29c4 2c3e 80b8 48bc c075 853b
00000070: e81a f13c 4009 84bc 023a 71be 1539 6ebe
00000080: e14c eabd 505f 29bc b2c2 a23d 4dac 6b3e
00000090: 7672 3abe bcf0 763d dd69 623e 34d7 94bd
000000a0: f0ec e2bc bc14 623d 7189 14be 7a90 ca3d
000000b0: 3555 27be 7a5b 87bd 20f6 51be c868 babd
000000c0: 2626 8fbd 59cf 0a3e 0d0e 393e 963b 5dbe
000000d0: 92c8 c5bd 1e16 de3d 9a94 ba3d 24b0 243d
000000e0: 9c40 5f3d ad9c 3cbe dc94 2bbe 38ce b33c
000000f0: 805b 04bb 0297 50be 2429 2a3d 7402 693d
00000100: 251b 413e f6da af3d 635a 053e 1430 77bd
00000110: 0923 2e3e 1c39 2e3d 3bc4 183e 0bfc 4cbe
00000120: 6004 e53b 682f 34be 2e56 b6bd 3884 c9bc
00000130: b2e0 9a3d 3495 53bd 9475 94bd 6dcc 2c3e
00000140: 179f 363e 3f35 5b3e 78dc 4dbd 0e07 9b3d
00000150: 4280 a53d 1f25 e4bd ccba 58be 5677 e33d
00000160: 58db 16bd 6893 34bd dc65 2b3d ab38 0dbe
00000170: 0b87 213e 7cf5 7f3d f138 1f3e 94eb 00be
00000180: 203d 49bd c006 00bb c754 4cbe f649 ed3d
00000190: 09a3 3a3e 59a0 183e 84be 02be 8731 5ebe
000001a0: 9640 c83d cd9b 173e 5728 2e3e 3123 203e
000001b0: cfbd 4f3e 1f62 ebbd 6e96 50be 01d6 163e
000001c0: c809 a6bc 2c73 153d 4aa5 c43d e048 73bd
000001d0: 5684 c43d 3eab 41be ddf7 04be 120a dd3d
000001e0: a305 6abe df43 203e c8dd fdbc c9ea 6a3e
000001f0: 0947 66be 4539 233e ab73 433e 2eee 933d
-0.20834658 -0.030666918 0.1255794 -0.17395861 -0.07900676 -0.13917859 0.12050958 0.23151837
-0.1835335 -0.05044736 0.0004929453 -0.12944016 0.006896153 0.17415307 -0.038446322 -0.06280616
-0.11211699 -0.041245326 0.016331658 0.12078272 -0.13929677 0.1553454 -0.0432681 0.2139069
0.19985794 0.16871704 -0.0122510195 0.004072875 0.029431775 -0.016117692 -0.23557284 -0.23263963
-0.11440445 -0.010337666 0.079472914 0.23014946 -0.18207726 0.060288176 0.22110696 -0.07267609
-0.027700871 0.055195555 -0.14505555 0.09890838 -0.16341098 -0.06609245 -0.20504045 -0.09102017
-0.06989698 0.1355566 0.18071766 -0.21604761 -0.096573964 0.10844062 0.09110375 0.040207043
0.054504976 -0.18419142 -0.16756004 0.021948919 -0.002019614 -0.20370105 0.04154314 0.056887105
0.18858011 0.08586685 0.13022761 -0.060348585 0.17005552 0.042534932 0.14918606 -0.20018022
0.006989047 -0.17596209 -0.08903156 -0.02459918 0.075623885 -0.051655963 -0.07248989 0.16874857
0.17834125 0.2140703 -0.050259084 0.07569705 0.08081104 -0.11139893 -0.21165007 0.11106746
-0.036830276 -0.04408589 0.041845188 -0.13791148 0.15774171 0.06248997 0.15549065 -0.12589866
-0.04913056 -0.0019535273 -0.19954215 0.115863726 0.18226255 0.14904918 -0.12767988 -0.2169858
0.09777944 0.14805527 0.17007576 0.15638424 0.2028725 -0.114933245 -0.20369884 0.14730074
-0.020268336 0.03648679 0.09601839 -0.05939567 0.095955536 -0.1891298 -0.12985177 0.107929364
-0.22853713 0.15650891 -0.030989543 0.22941126 -0.22488035 0.15939815 0.19087093 0.072231635

lstm.weight_ih_l0 f4 [256, 128]
00000000: 88ab 7ebd 003e 633c e4fb c03d f266 9fbd
00000010: f0fb 953c e8f9 963d ac2f 963d 6a54 903d
00000020: 0487 1fbd bc19 e3bd c0fb d33b b056 e1bd
00000030: 1ed1 92bd b05f 6bbc b016 f6bc d01f 8fbd
00000040: e07a 7ebd 94d8 3a3d b0f0 08bc 46b4 b3bd
00000050: 8c3e fe3d d0ef 233d 1492 9c3d 0c66 743d
00000060: 6812 dbbc ea70 f33d e0b8 8e3d 68eb 873c
00000070: a0cf f23c 003c d63a 2c0d 51bd a8e4 f7bc
00000080: 58bc 05bd b4c9 63bd d285 9abd 54b2 be3d
00000090: e02b eb3d e846 323d bafd ee3d de47 d53d
000000a0: 5070 10bc 4423 1fbd 523c d3bd e036 313d
000000b0: da33 a53d b4e2 61bd 4c5f 103d 70d6 833d
000000c0: 605d bf3b a8d9 49bd 903c 553d fc23 da3d
000000d0: 7096 59bd 1282 ac3d a893 72bd 60e7 9cbc
000000e0: 6278 8b3d 5052 c1bc 20d6 d2bb 1ac7 e93d
000000f0: 1833 063d f2d8 e03d 88be 17bd c8eb bb3d
00000100: e08a f83c a025 933b a026 603c b456 d83d
00000110: 7005 de3c 2e45 9fbd 2047 8d3d dc1b 6fbd
00000120: 3eae a43d 3825 c7bd a03c a3bd f81e fa3d
00000130: a2ae 973d 7ce9 0dbd 3088 0abc 3210 823d
00000140: 8050 aeba d00a 00bc 3094 663d d8bd 72bd
00000150: 0055 6cbc f81c 203d c68b dc3d c033 06bc
00000160: 804a 12bc 403c 84bb 80d0 7fbd 7662 aa3d
00000170: 7cfe 813d 92b0 fe3d 5898 783d 1876 853d
00000180: 08c8 cd3d 006a 2e3a f846 f8bc 2863 ffbd
00000190: 48ae 8ebd 0ccf cfbd 6076 c8bc f2f9 e43d
000001a0: d8c8 ddbd 2805 32bd b4e9 7abd 9045 d03c
000001b0: 6e1a bebd 0cdc c0bd c469 00bd d400 9ebd
000001c0: f0c2 e6bc 68c0 bb3d bcdd 603d f89a 483d
000001d0: b426 c8bd 1668 e13d 60c6 8fbc 1cb7 07bd
000001e0: 006d 7c3a 24e6 2ebd 8029 9c3d 0881 fe3d
000001f0: 38ea 723d 6c3b c13d e265 a5bd c03d 433b
00000200: 441b ebbd a0f7 c93b 30d5 bfbd f425 f8bd
00000210: 02a0 f9bd 488a d7bd 6873 52bd 924a c3bd
00000220: 80b3 08bd e8fc eabd 842b 57bd 129b c7bd
00000230: e832 853c ea11 b43d 6229 ae3d 280b 15bd
00000240: c0bc 43bb 7e8e 9dbd 02a0 e3bd 28ed 4bbd
00000250: f83f e9bd 00af d4bd 80d0 8fbd 2094 b83b
00000260: d8de d7bc d0ff 653d 9016 b2bc 0ef9 a83d
00000270: b8d5 cebc c633 c13d 14b1 c2bd 00fb ddbb
00000280: 8076 e2bd 08bd 8ebd 6238 e0bd 7e70 dc3d
00000290: 1a6a 91bd 98f1 e43c 6c6a e6bd 86bc 8fbd
000002a0: f42e b7bd 6606 cb3d 3034 ad3c 300f f2bd
000002b0: 38c4 9ebd 7cb1 853d aee3 e0bd 1c9d 433d
000002c0: f834 a13c 4029 e83d c018 e6bd 306e 46bd
000002d0: 6485 44bd b8fc ce3c 5af4 f33d d800 5dbd
000002e0: 686c ec3d 40ad 45bd a637 d5bd f0c0 30bc
000002f0: 003b 45bb 88a3 09bd 501d 1ebc e4e1 35bd
00000300: e44f e83d 007c 6eb9 e4b9 033d 32b3 fcbd
00000310: 9640 d63d c63d d1bd b8b6 9a3c 6455 86bd
00000320: 686c 33bd d209 e83d 3089 8f3d a62f 81bd
00000330: 107b 21bc 008a eb3d dcae cebd 6020 97bc
00000340: 8c30 753d 800a d0bb 2898 fa3c 76e9 c2bd
00000350: f4b2 05bd 86ec b4bd c0cb 58bb e269 8a3d
00000360: 06ac 953d cc32 293d 0080 10ba 2826 583d
00000370: feb5 debd e040 bdbd e07d 41bd 96b8 b53d
00000380: a418 1e3d 1033 adbd 7093 ebbc 7099 e9bc
00000390: c0da 413d e65d db3d 3c85 063d 00f5 3b3b
000003a0: de67 fcbd a002 853c 78d4 423d c017 623b
000003b0: 54a6 8f3d 8053 10bd 58fe 513d 009c be3a
000003c0: 36ec fdbd 76ad a4bd c64a b4bd 7282 fe3d
000003d0: 068c ea3d 20d9 213c 6877 c93c c423 96bd
000003e0: 5835 fa3d dcc5 603d 120d 89bd ac3e dc3d
000003f0: d840 de3d d41d 36bd 6a8b c53d d08b 61bd
-0.062175304 0.013869762 0.09423044 -0.07783307 0.01830861 0.073718846 0.073333114 0.07047351
-0.03894712 -0.11088893 0.00646922 -0.110028625 -0.07168792 -0.014366075 -0.030040115 -0.0698849
-0.0621289 0.0456167 -0.008358166 -0.08774619 0.124142736 0.040023625 0.0764505 0.059667632
-0.026742175 0.11886771 0.06968856 0.016591743 0.029640019 0.0016344786 -0.051037952 -0.030260399
-0.03265032 -0.05561228 -0.075450554 0.09311357 0.11482978 0.043524653 0.11669488 0.10414098
-0.00881584 -0.03885199 -0.103142396 0.043265224 0.080665305 -0.05514784 0.035247132 0.06437385
0.0058399886 -0.04927984 0.05205971 0.10651395 -0.053121984 0.084232464 -0.059222847 -0.019153297
0.068100706 -0.02359882 -0.006434217 0.11414929 0.03276357 0.10978879 -0.03704694 0.09175831
0.030339658 0.0044905692 0.013681084 0.10563412 0.027102202 -0.07776867 0.06898332 -0.05837618
0.080410466 -0.09723896 -0.07970548 0.12212938 0.074063554 -0.034646496 -0.008455321 0.06350745
-0.0013299137 -0.007815078 0.056293666 -0.05926308 -0.014424562 0.039090127 0.10768847 -0.008191049
-0.008928895 -0.0040355027 -0.0624547 0.08319561 0.06347367 0.12436022 0.06069216 0.06516665
0.100479186 0.00066533685 -0.030307278 -0.124700844 -0.06966835 -0.10146913 -0.024470508 0.11180486
-0.108293235 -0.04346195 -0.061258033 0.025423795 -0.09282385 -0.094169706 -0.031350866 -0.07715002
-0.028169125 0.09167558 0.054898962 0.048975915 -0.09773007 0.11006181 -0.017550647 -0.03313361
0.00096292794 -0.042699948 0.07625103 0.124269545 0.0593054 0.09435162 -0.08076073 0.0029791445
-0.1147981 0.0061635524 -0.09366834 -0.12116614 -0.12188722 -0.10524422 -0.05137959 -0.095357075
-0.03337431 -0.11474019 -0.052531734 -0.09746374 0.016259626 0.08792479 0.08503987 -0.036387593
-0.0029867142 -0.07693194 -0.111145034 -0.049786717 -0.11389154 -0.10384941 -0.0702219 0.0056328923
-0.026351377 0.056152165 -0.021739274 0.082506284 -0.025248393 0.09433703 -0.09506431 -0.0067743063
-0.11057758 -0.069696486 -0.10948254 0.10763644 -0.071003154 0.027947232 -0.11250767 -0.0701838
-0.089445025 0.0991333 0.021143049 -0.11819303 -0.077522695 0.06527993 -0.109809265 0.047757253
0.019678578 0.11335993 -0.112351894 -0.048444927 -0.047978774 0.02526699 0.11911841 -0.053955883
0.11544114 -0.048260927 -0.10411005 -0.010788187 -0.0030094981 -0.03360322 -0.009650543 -0.04440488
0.11343363 -0.00022743642 0.0321597 -0.12338866 0.104615375 -0.102168605 0.018885955 -0.06559256
-0.043804556 0.11329998 0.07008588 -0.06307916 -0.009856001 0.11500931 -0.100919455 -0.018448055
0.05986075 -0.006348908 0.030590132 -0.095171854 -0.032641366 -0.08834176 -0.003308043 0.06758477
0.073082015 0.04130821 -0.00055122375 0.052770764 -0.10874556 -0.092408895 -0.047239184 0.088730976
0.038597718 -0.08457005 -0.028756827 -0.028515548 0.047327757 0.10711269 0.032841906 0.0028679967
-0.123244986 0.016236603 0.047565907 0.003449902 0.070141464 -0.03523588 0.05126795 0.0014542341
-0.12398569 -0.080408975 -0.088033244 0.12427224 0.114524886 0.009878427 0.02459307 -0.073310405
0.12217206 0.054876193 -0.06691946 0.10754141 0.10852212 -0.04446204 0.09645732 -0.055064976

lstm.weight_hh_l0 f4 [256, 64]
00000000: 1cf6 b33d 00c8 0d3d 701e b3bc 80d5 ad3d
00000010: 3084 1f3c b6fe d7bd 640a a4bd c01c bf3b
00000020: f6de af3d 00dd 463c c473 f13d 5a71 8bbd
00000030: c011 5abc 80d2 1dbd 08cc fa3c d00e 58bc
00000040: e484 073d e09d a8bb 8488 d2bd 9023 84bd
00000050: 52a0 ba3d d020 44bc ea94 cebd ccc6 01bd
00000060: d464 fc3d 5690 f03d 089e 283d a003 01bd
00000070: 94af 213d 2038 513c c0fc 043b b8a9 30bd
00000080: 406d b2bb 0071 62bd 68af d33c 1ae9 96bd
00000090: 1049 91bd 56f7 e73d acce 693d 4892 893c
000000a0: e86f 99bc 2885 f53c 8ecd aabd a420 74bd
000000b0: e046 2fbd 04e3 6dbd 00ec 793d c05b c7bd
000000c0: f6c7 a03d a024 61bc e089 383c ce1c 863d
000000d0: c097 1b3d e099 ab3d fe50 c0bd b0c4 c03d
000000e0: 9a78 e83d 5867 b13d 6ed6 893d 7e2b edbd
000000f0: 00ae 043d d6d5 f9bd acc2 17bd 008b fa3b
00000100: f0bd 9a3c 6c07 90bd 4892 923c 18d9 8fbc
00000110: 38fb 58bd 9ed6 febd 8af3 fb3d 2067 6dbd
00000120: f4ec 973d 8a24 fdbd 0099 ca3b b0df a63c
00000130: c0e9 813b 20a5 c83b 308b 8ebd 7472 fa3d
00000140: c818 b8bc 2468 c73d 90aa 063d 28a0 30bd
00000150: 8038 083b 4013 e1bd 1840 b6bc 9426 523d
00000160: 387c 933c 84fe f43d f073 b8bd e2a9 bfbd
00000170: 74c8 cd3d 50c0 b1bd 0e2f 813d c0da 103b
00000180: 3ebf c33d 06d2 a63d 1454 053d 80e3 a3bd
00000190: 3823 f7bc 4085 bc3d 52d5 963d 5020 023d
000001a0: 1cff 2ebd 20c7 84bc 1efc b33d d4e9 18bd
000001b0: eca2 fbbd 3037 a73d 0e40 f43d e69f d53d
000001c0: b0d7 a5bc 8a95 ddbd 1a0f c13d f887 e7bc
000001d0: 2e84 9a3d cc0d e93d 30c8 8b3d 1402 a2bd
000001e0: c038 cbbc ac63 7bbd 5882 3e3d 32be c0bd
000001f0: a472 3ebd 80c2 19bb b0db c2bc 58ce 4cbd
00000200: d014 553c 2ca8 ecbd 44b7 6bbd 3cf3 d1bd
00000210: a819 833c e0c5 fd3d 28b2 fabd f810 b9bc
00000220: c019 483d 6069 ebbd 8839 f2bd a8be c8bc
00000230: ac43 553d e6bc bcbd a004 3fbd 4e3d ddbd
00000240: b83f c9bd dc0e 463d a82d f7bd f8ad 4fbd
00000250: 306d ce3d 7013 33bd 3ea3 893d 6ce1 ff3d
00000260: 4caf dfbd f061 823c 5c1c ac3d 9032 143c
00000270: ccd3 08bd 68cf 963c 189e e1bc fcfe 2dbd
00000280: 141d 043d 66f9 f0bd 1282 e33d 5044 32bd
00000290: e0c8 063c 4c63 6bbd 6014 51bc 882a 89bd
000002a0: 8ccb fc3d 46a8 8d3d 5077 bd3c 041b 863d
000002b0: 0c79 853d 301f 09bc acd7 983d 000a d0ba
000002c0: 805b 0fbb 8a07 a0bd 28ff 9e3c 8080 e8bc
000002d0: 6ca3 51bd a8fe cebc 44ef 623d a84b 533d
000002e0: f83d a8bc c00a b53d 3e3d e9bd 406d c6bb
000002f0: 4c0b 80bd d614 ecbd f2c8 8e3d 846d 4b3d
00000300: 8020 9ebb 00b0 edbc 709c f13c 5ad8 9dbd
00000310: 5acd f9bd fabb dabd 444e e3bd 1eda ba3d
00000320: c6a6 d43d 04c1 b03d e072 7bbd a851 933c
00000330: 0428 133d b4d5 f93d c4a6 62bd 80cd 07bd
00000340: c04c d6bc 32ce f5bd 1828 483d f0d2 213d
00000350: 0053 ff3d 88c3 fabd be8c 9ebd 64ce 1fbd
00000360: 207f 9d3b cc57 89bd 781b 4fbd 0007 89ba
00000370: a4bd 09bd 509e 473d d00d c33c e2e3 cebd
00000380: febc a4bd d818 1d3d a0cd 03bd f04b dbbd
00000390: 98f1 e13c b8b6 9ebc b0a3 1bbd ac6b bd3d
000003a0: 24c7 153d 76d2 acbd c462 2abd 446c 43bd
000003b0: 50d0 7abc 885c ef3c f023 373c 2802 cc3c
000003c0: 448c 983d cc5c 6c3d 2068 d43d 0cfe 9cbd
000003d0: 6c0e 1fbd 7c40 fbbd 88c7 ab3c 38fa 283d
000003e0: 488b 09bd 368a d9bd 068b 8b3d 34b3 ea3d
000003f0: 08e1 8c3c 3a0f 8fbd 9e33 d7bd d412 273d
0.08787176 0.034614563 -0.0218651 0.084879875 0.009736106 -0.10546629 -0.08009794 0.0058322847
0.08587448 0.012137651 0.11789659 -0.068087295 -0.013309896 -0.038530827 0.030614868 -0.013187125
0.03308572 -0.0051457733 -0.102799445 -0.064520955 0.0911261 -0.011970714 -0.10086997 -0.031683728
0.12323919 0.1174628 0.041166335 -0.031497598 0.039474085 0.012769729 0.0020292252 -0.043130606
-0.0054451525 -0.055283546 0.025840476 -0.07368679 -0.07094014 0.113264725 0.057081863 0.016793385
-0.018730119 0.02997072 -0.08339988 -0.05960144 -0.0427922 -0.058077827 0.061016083 -0.09734297
0.078506395 -0.013741642 0.011263341 0.06548463 0.037986517 0.08378959 -0.09390448 0.09412515
0.11351128 0.086622894 0.06730352 -0.11580561 0.0323925 -0.12198989 -0.037050888 0.0076459646
0.018889397 -0.070326656 0.017892018 -0.017559573 -0.052973956 -0.12443279 0.12302311 -0.057959676
0.07418242 -0.12360485 0.00618279 0.020370334 0.0039646327 0.0061232 -0.06960142 0.122288615
-0.022472754 0.0973666 0.032877505 -0.043121487 0.002078563 -0.1099 -0.02224736 0.051306322
0.018003568 0.119626075 -0.09006488 -0.093585745 0.10047999 -0.08679259 0.06307803 0.0022103041
0.09557961 0.081455275 0.032550886 -0.080023766 -0.03016816 0.09205103 0.07364906 0.031769097
-0.04272376 -0.016208231 0.08788322 -0.03733237 -0.12286934 0.08164823 0.1192628 0.10430889
-0.02024445 -0.10819538 0.094267085 -0.028263077 0.075447425 0.11379585 0.06825292 -0.079105526
-0.024807334 -0.06137435 0.046511024 -0.09411277 -0.04649605 -0.0023461878 -0.023786396 -0.050001472
0.01300545 -0.11555514 -0.057547823 -0.102514714 0.016003445 0.12391257 -0.12241012 -0.0225911
0.048852682 -0.11494708 -0.118273795 -0.024504974 0.05206649 -0.09215717 -0.04663527 -0.108027086
-0.098266065 0.048354015 -0.12069255 -0.05070302 0.100794196 -0.04371971 0.06720589 0.12494168
-0.10922107 0.01591584 0.084038466 0.009045258 -0.03340511 0.018409446 -0.027541205 -0.0424795
0.032254294 -0.11766319 0.11108793 -0.04352218 0.008226603 -0.057467744 -0.012761205 -0.06697565
0.12343511 0.06916861 0.023128182 0.065481216 0.065172285 -0.008369252 0.07463011 -0.0015872121
-0.0021874607 -0.07813938 0.019408777 -0.028381586 -0.051181242 -0.025267914 0.055403963 0.051585823
-0.020537362 0.08839941 -0.11388634 -0.006055504 -0.06252155 -0.11527412 0.06971921 0.04966499
-0.0048256516 -0.029014587 0.02949354 -0.077072814 -0.12197371 -0.10680385 -0.11098912 0.09123634
0.10383372 0.08630565 -0.06138885 0.017983273 0.035926834 0.12198964 -0.05533482 -0.033154964
-0.026159644 -0.12002219 0.04886636 0.039507806 0.12467003 -0.12244326 -0.07741688 -0.03901519
0.0048064142 -0.06706199 -0.050563306 -0.0010454357 -0.03362812 0.048734963 0.023810297 -0.10102059
-0.0804386 0.03835377 -0.03217852 -0.10707843 0.027581021 -0.019374236 -0.0379979 0.092490524
0.03656687 -0.0843858 -0.041598096 -0.047710672 -0.015308455 0.029218927 0.011178002 0.024903372
0.074486285 0.057705685 0.10371423 -0.07665643 -0.038832113 -0.12268159 0.020969167 0.041254252
-0.033580095 -0.10622065 0.06813626 0.114599615 0.017197147 -0.06985326 -0.10507892 0.04078944

lstm.bias_ih_l0 f4 [256]
00000000: b261 e3bd 00d4 2bbc 20a0 70bc f4f6 adbd
00000010: d002 c63c 42e5 85bd f2c0 953d 1059 1a3d
00000020: eee5 9f3d ac44 2f3d dcc0 a6bd d864 c43c
00000030: 703e d03d f42c abbd 0030 84bd 70ff e0bc
00000040: 3ab2 cebd 52ce eebd 6028 57bc 369c da3d
00000050: 7627 9c3d e081 003c d257 d0bd 8892 c13d
00000060: 186c a93d 7040 353d 803e bf3b d4e9 61bd
00000070: 70c5 05bd d0f9 6b3d 0c47 50bd 0cf7 1e3d
00000080: e831 debc 2853 343d 40d0 803d ae43 ce3d
00000090: 28bc f4bd 5c23 e53d dc58 743d 32c7 e2bd
000000a0: a284 bbbd 0060 623b 2876 e3bc fc3e abbd
000000b0: 9843 85bc 8c45 6bbd b474 193d 5450 edbd
000000c0: 9ad8 9e3d 7844 d2bc 2819 003d 089a b73d
000000d0: d804 b3bc f0f9 1a3d 8ca4 cd3d 5cee b0bd
000000e0: 3a2c 8cbd b050 5d3d 4077 663c 008a 153c
000000f0: 8833 49bd 744d d8bd 8ccd 493d c0e5 853d
00000100: 9cf0 3a3d 142f ca3d 608a ce3b b6fa dbbd
00000110: c209 b73d 8097 873a 8e2f fbbd a0e3 bb3c
00000120: d455 28bd 14e0 113d e874 ea3c b4d1 5c3d
00000130: 1a0c d8bd 8066 25bb 2811 9d3c c053 703d
00000140: 40bb f13d c635 97bd de99 babd acb2 f9bd
00000150: 7014 4c3c c0c2 5fbc 6e4b a23d 9ad6 ad3d
00000160: 80ba b53b 9099 1a3d c8eb e93c 8011 b9bd
00000170: 287f 8e3d fcf1 533d e0e3 223c 48bb 46bd
00000180: 8001 ae3d a4b8 debd 3650 893d 9800 85bc
00000190: 3ea7 9cbd 647a 123d f085 c03d 8e07 a03d
000001a0: e0de 643c 2401 7b3d 7ca9 0d3d 50a3 2e3c
000001b0: 7480 bf3d a0a6 6abc 7a37 c03d 962e a7bd
000001c0: 28df 58bd 0a2d a33d c05c 5f3b c059 27bd
000001d0: d4cf 2ebd 88ef 363d 56da b8bd d4c0 033d
000001e0: 86db debd c0fc 7bbb 60c8 cdbc d840 e8bc
000001f0: aabb ba3d 8088 913b 80e2 5abb 18e0 b73d
00000200: e62d f0bd 7453 47bd 701a 493d de61 f1bd
00000210: ce53 903d 000e db3a ecae 38bd fccd b93d
00000220: b075 f3bd a8a8 00bd b2b7 8dbd 1e1f f73d
00000230: 8465 cb3d 60b8 573d 0ce4 823d e0be 29bc
00000240: c0ca 5abd 9a48 b73d 90f0 85bd 52a8 a83d
00000250: fe9e e0bd 98c0 f6bd 7060 e5bd 568e 9bbd
00000260: 0c24 3abd 542f 6dbd 88b7 9dbd 320d ca3d
00000270: c4d0 3cbd 0ae8 ab3d 20e4 483c e23b dc3d
00000280: 109b e5bc 8405 f0bd b857 ad3d c097 5b3d
00000290: e2f2 97bd 0033 4fbd ac55 ba3d 00f7 623b
000002a0: a479 283d d6d7 b83d 927d f0bd 7424 28bd
000002b0: a82a c73c d01b 8f3c 1cba 0abd 8e6f e8bd
000002c0: ac7d 433d 5665 e63d c003 b23b da1c 93bd
000002d0: 569c ff3d ee8d 953d 88a9 65bd d298 9cbd
000002e0: f0e2 a43d 123a b23d a2a5 c9bd 52df 813d
000002f0: 809e a4ba 9485 903d 5035 a0bc 161b 89bd
00000300: 48b4 c6bd 30b6 37bd 1e79 f6bd 2c28 fc3d
00000310: e0b6 2fbd 0e1b 813d 3c55 b4bd 4488 e13d
00000320: a6b5 d6bd 3cdb fe3d be03 d5bd b864 a3bc
00000330: 38f3 edbd 68ae 983c 30fd 24bd 08f8 60bd
00000340: 8420 493d 0a4d 8f3d d0f7 4b3c 10a6 233d
00000350: befb 9d3d 504d cb3d 0877 983d 4e66 ae3d
00000360: 3ecb babd 3cf8 29bd d42f e63d 8073 dc3a
00000370: 4603 e5bd 2074 17bc b071 cbbd 2cae c2bd
00000380: 24e2 ecbd 2831 2f3d de8b ad3d aa50 afbd
00000390: b864 bd3c ead1 eb3d ec69 ebbd c62d 953d
000003a0: 0289 a43d d0e8 913c 0055 16bc a035 f8bc
000003b0: aede c1bd 6a66 dc3d 30c6 00bd c4b0 903d
000003c0: 309b 733d 785a a8bd 7ece c33d 20d2 c13d
000003d0: 80d8 b0ba 4841 67bd 607a dd3d 14d0 1e3d
000003e0: 52f5 943d 8cc4 303d c0a8 adbd 0029 ca3d
000003f0: dc39 9bbd c261 a6bd ea5e b9bd a07c 1bbc
-0.11102618 -0.010487556 -0.014686614 -0.08494368 0.024171263 -0.06537868 0.07312192 0.037682593
0.078075275 0.0427901 -0.08142254 0.023973867 0.10168159 -0.083581835 -0.06454468 -0.027465552
-0.10092588 -0.11660446 -0.013132185 0.10674326 0.07624714 0.007843465 -0.101730004 0.09451777
0.0827257 0.044250906 0.005836308 -0.055154637 -0.032658994 0.057611287 -0.050849006 0.03880982
-0.027123407 0.044024616 0.062897205 0.100715026 -0.119499505 0.11188385 0.059655055 -0.1107315
-0.09156157 0.0034542084 -0.027766302 -0.08361623 -0.016267583 -0.057439372 0.037464812 -0.11587587
0.07756157 -0.025667414 0.03127399 0.08964926 -0.021852896 0.037836015 0.100411505 -0.086392134
-0.06844373 0.054032028 0.014066517 0.00912714 -0.04912141 -0.10561648 0.04926829 0.06537962
0.04563962 0.09872261 0.0063031167 -0.10741179 0.08937408 0.0010344833 -0.1226493 0.022935688
-0.041097477 0.03561409 0.028620198 0.053910926 -0.10549183 -0.0025238097 0.01917322 0.05867362
0.11803293 -0.07383303 -0.09111379 -0.12192282 0.012456045 -0.013657272 0.07924543 0.084881976
0.005545914 0.037744105 0.028554812 -0.09036541 0.06957847 0.051744446 0.009942025 -0.04851845
0.0849638 -0.10875061 0.06704752 -0.016235635 -0.076490864 0.035761252 0.094005466 0.07813941
0.013969153 0.061280385 0.03458546 0.010659054 0.09350672 -0.014321953 0.09385581 -0.081631824
-0.052947193 0.07967575 0.0034082383 -0.040857077 -0.04267867 0.04466203 -0.09026019 0.032166317
-0.108817145 -0.0038450211 -0.02511996 -0.028351232 0.09117825 0.004441321 -0.0033399165 0.08978289
-0.117275044 -0.04866357 0.04909748 -0.11786245 0.070472345 0.0016712546 -0.045088693 0.090724915
-0.118876815 -0.031410843 -0.06919803 0.12066482 0.09931472 0.052666068 0.06391153 -0.01036045
-0.053416014 0.089493945 -0.06540024 0.082352296 -0.10967825 -0.12048453 -0.112000346 -0.07595508
-0.045444533 -0.057906464 -0.077010214 0.09865798 -0.046097532 0.08393867 0.0122614205 0.10753609
-0.028028041 -0.11719802 0.08463997 0.053611517 -0.07419373 -0.050585747 0.09098372 0.0034632087
0.04113163 0.090255424 -0.11742701 -0.04105039 0.024312332 0.017469317 -0.033868894 -0.11349402
0.047727272 0.11249797 0.005432576 -0.071832374 0.124809906 0.073024616 -0.05606988 -0.07646336
0.080510974 0.08702482 -0.09846045 0.06341423 -0.0012559444 0.07056728 -0.019556671 -0.06694619
-0.09702355 -0.044851482 -0.1203482 0.1231235 -0.042899013 0.063039884 -0.0880532 0.11012319
-0.104838654 0.124441594 -0.104011044 -0.019945487 -0.11618656 0.01863785 -0.04028052 -0.05492404
0.049103275 0.06997116 0.01244922 0.03995329 0.07714032 0.099268556 0.074445784 0.08515607
-0.091207966 -0.0414965 0.11239591 0.001681909 -0.11182265 -0.009243995 -0.099337935 -0.09505877
-0.115665704 0.04277149 0.08473943 -0.08560307 0.023119316 0.11514647 -0.11494812 0.07284121
0.08033945 0.017811209 -0.009175539 -0.030299008 -0.09466301 0.107617214 -0.031439006 0.07064965
0.05947417 -0.082203805 0.0956087 0.09463906 -0.0013492256 -0.05645874 0.10814357 0.038772658
0.07273354 0.04315619 -0.08479452 0.098711014 -0.07579395 -0.081241146 -0.090513065 -0.009490162

lstm.bias_hh_l0 f4 [256]
00000000: e425 5a3d 3ed9 9dbd e24c 923d 90e5 bf3d
00000010: e2f4 f9bd c26c e1bd 8036 8cbc e65b 80bd
00000020: 5ce6 0cbd fe44 d5bd 4e9e b83d f063 71bd
00000030: 5ecd cf3d ee90 e6bd 509e cfbc 907b 7dbc
00000040: 6004 9bbb 1042 5f3c 8a6f cc3d a40e eb3d
00000050: f8a3 0b3d c840 453d 7031 4f3c e859 fabc
00000060: a0b2 b3bd 667b a6bd f85f efbc e079 1b3c
00000070: a054 53bd 7c62 91bd e69e e1bd 7ac0 b03d
00000080: 0489 733d 409c d0bc e8a3 5e3d 7005 5fbd
00000090: 505d 1ebc c0e5 f53c 384d d23d 8030 edbb
000000a0: 8089 8a3c 7422 fd3d fc89 c8bd 78e8 61bd
000000b0: f634 bcbd c0fe ed3c 800b f7ba e0bc 6cbd
000000c0: 8e18 ab3d 503e f73d 14e0 53bd 7070 6abd
000000d0: d4e8 e43d 0046 513c fa25 c9bd 5c26 bf3d
000000e0: def7 e2bd 4c06 19bd 70cd 213d a051 febb
000000f0: a85b 89bd a0f3 6cbc 04c2 783d 4620 c83d
00000100: ecfc a2bd a4ab 213d 3c69 393d a29e 9dbd
00000110: 20b1 dc3c 7044 78bc 1e4e cd3d a04b 88bc
00000120: 6047 26bd 9822 ecbd 90bf 5c3c 98f3 403d
00000130: 30be dabc 2438 adbd 400b 0d3d e020 35bc
00000140: 3446 07bd 6447 9f3d f0d7 4ebc 126b d53d
00000150: a6b2 d7bd 4e77 cebd e8ab 71bd c8b4 b3bc
00000160: 78a4 f3bc f869 f7bd 24a3 90bd 3eed b2bd
00000170: b84b 80bd c093 05bb 9c80 b33d a8ca a73d
00000180: e2d3 f6bd 9037 e7bd 2826 6cbd ecd2 95bd
00000190: c870 253d f443 09bd 287e c63c 08dd e33d
000001a0: e481 693d b4f7 e3bd 14fe 3c3d f8dd 2fbd
000001b0: 4cf9 18bd 6892 e03d e08d 70bd 3088 c03d
000001c0: 3a8a dabd c03c e03d 80f3 8cba ecfc 843d
000001d0: 6047 b93b 3852 b4bd ecb5 4d3d 822d b1bd
000001e0: 7051 d6bc 8039 e13b 5ca9 e83d a036 9cbb
000001f0: 903d e53d 92ba cf3d d0f0 f53d 740f 7a3d
00000200: a0fa 703d c855 bbbc 9e65 9a3d 5e5e e03d
00000210: e67e f8bd 80c2 3ebc a878 a13c 1c80 55bd
00000220: 2e73 e93d 3865 ff3d d069 a73d 1e48 f63d
00000230: c831 f9bd 029e da3d b8d4 903d be66 8fbd
00000240: 7860 bf3c 7421 45bd 9cd3 fabd 3e23 af3d
00000250: 50bc d2bd 60b7 e2bc d05c 23bd 1e2e db3d
00000260: 7662 eb3d 9401 763d 98ae e7bc 300f 423d
00000270: ba60 aa3d b454 123d 10e7 ed3d 2807 a33c
00000280: 442f c5bd e042 d0bc ba09 f6bd 9888 6dbd
00000290: 40df e4bd aa98 afbd 5859 dbbd 3872 e23d
000002a0: b855 1b3d 2443 fcbd a4f7 023d 0090 3a3b
000002b0: 9e81 b93d d2c1 923d 826f 80bd f84a 2cbd
000002c0: 9897 3fbd 0054 4c3c 4000 323d 446a dc3d
000002d0: 108f b5bd 3419 79bd 303b 68bc 3462 00bd
000002e0: decf f73d 92a6 b73d 9c89 debd 20c5 ae3d
000002f0: 5646 aa3d 9e65 b03d 5485 593d 0063 1c3a
00000300: c473 bb3d 384d b13d 880d b5bc 3c4f 62bd
00000310: f2b0 bd3d d81a f6bd 100e 0abd b059 f33d
00000320: 5093 40bc 7c23 ec3d a6c1 cc3d d4bb 933d
00000330: aec5 d1bd 2077 423c ec3b 223d 0060 043c
00000340: d24b a6bd fa02 ab3d 4248 a0bd e0e2 aabb
00000350: 92cc d8bd 22dd f73d 6026 b3bb 2088 eb3c
00000360: 688d ccbd 80fd 56bd c0a9 4dbc 5e44 913d
00000370: 0cdf d23d 944c 313d 4015 8a3b 98a7 b83d
00000380: 5419 f5bd cce6 f93d 6c4b a2bd f831 d2bd
00000390: b691 bd3d 48a1 673d f046 d63d d6d9 9c3d
000003a0: 0068 003d 4ed3 c63d 4052 4d3d c030 7c3c
000003b0: e4c0 92bd 4c92 f8bd 3c2f f9bd c4f1 7bbd
000003c0: 8c1f 86bd f8ae 993c 8046 acba 0436 c9bd
000003d0: 3026 d73d d467 97bd a06a 073d 38fc 85bd
000003e0: d80b 933d 8c57 703d b06b 1dbc 10af fe3d
000003f0: d612 bd3d a034 a33b 38fa a43d 4689 fbbd
0.05325879 -0.07707451 0.071435705 0.093699574 -0.12204911 -0.11007072 -0.017115831 -0.06267528
-0.034399375 -0.1041355 0.09014569 -0.0589332 0.101465926 -0.11258112 -0.025344044 -0.015471354
-0.004730746 0.01362659 0.09982212 0.11477402 0.03409192 0.048157483 0.012646064 -0.030560449
-0.087743044 -0.08129005 -0.029220566 0.0094895065 -0.051594377 -0.070988625 -0.110166356 0.08630462
0.05945684 -0.02546513 0.054355532 -0.054448545 -0.009665802 0.03001678 0.102686346 -0.0072384477
0.016911268 0.12360087 -0.097919434 -0.05515334 -0.09189789 0.029052138 -0.0018848032 -0.057797313
0.08354293 0.12072432 -0.05172737 -0.057236135 0.11177221 0.012773037 -0.098216966 0.09333488
-0.11082433 -0.03735952 0.03950256 -0.0077611953 -0.06706935 -0.014462382 0.060731903 0.09771781
-0.07958397 0.03947033 0.045266375 -0.076962724 0.026939929 -0.0151530355 0.10024665 -0.016637623
-0.040595412 -0.11530036 0.013473406 0.04710731 -0.026702017 -0.084579736 0.034434557 -0.011055201
-0.033025935 0.077772886 -0.012624726 0.10420813 -0.10532121 -0.10081349 -0.059001833 -0.02193679
-0.02974151 -0.12080759 -0.070623666 -0.087366566 -0.06264442 -0.0020382255 0.08764765 0.081929505
-0.12052132 -0.112898946 -0.057653576 -0.07315621 0.04039076 -0.03351207 0.024230078 0.11126143
0.05700864 -0.1113123 0.046140745 -0.042936295 -0.037347123 0.10965425 -0.058729053 0.09400976
-0.10670896 0.10949087 -0.0010753721 0.064935535 0.0056542605 -0.088047445 0.050222322 -0.08651258
-0.02616188 0.0068733096 0.11360428 -0.004767254 0.11193383 0.10143007 0.12008822 0.061049893
0.058832765 -0.022868052 0.07538913 0.10955499 -0.12133579 -0.011643052 0.019710854 -0.052124128
0.11398922 0.12470478 0.08174479 0.12025474 -0.12167698 0.10674669 0.07071823 -0.070020184
0.02336143 -0.048127607 -0.122473925 0.08551644 -0.10289824 -0.02767533 -0.039883435 0.107021555
0.11493389 0.0600601 -0.028281495 0.047377765 0.083192304 0.03572531 0.11616337 0.019900873
-0.09628156 -0.025422513 -0.12013574 -0.057991594 -0.11175394 -0.0857404 -0.107104 0.11056942
0.037923545 -0.123174936 0.03197445 0.0028467178 0.09057926 0.071658745 -0.062712684 -0.042063683
-0.04677543 0.012471199 0.04345727 0.10762456 -0.08865178 -0.06081505 -0.014174268 -0.031343654
0.121001944 0.08967318 -0.10866091 0.08533692 0.08314197 0.08613132 0.053105667 0.000596568
0.0915294 0.086573064 -0.022101179 -0.055251345 0.09262265 -0.12016839 -0.033704817 0.11882341
-0.011753872 0.115302056 0.09997873 0.0721356 -0.102427825 0.011869222 0.039607927 0.008079529
-0.0811993 0.08350177 -0.07826282 -0.005215034 -0.10585894 0.121027246 -0.005467221 0.028751433
-0.099879086 -0.05248785 -0.012552679 0.07093118 0.10296449 0.04328592 0.004213959 0.09016341
-0.119677216 0.12202224 -0.07924542 -0.10263437 0.09256308 0.056550294 0.10462749 0.076587364
0.031349182 0.09708272 0.050127268 0.015392482 -0.07165697 -0.12137279 -0.12167212 -0.061509863
-0.06548986 0.01876019 -0.0013143569 -0.09824756 0.105053306 -0.073928505 0.03306067 -0.065422475
0.071799934 0.05867724 -0.009608194 0.12435734 0.09232108 0.0049806386 0.08055538 -0.12282042

fc2.weight f4 [32, 64]
00000000: 2079 063d 88a7 7dbd 185e c23d 38e0 833c
00000010: 6eac cabd 3489 de3d 161e 883d 0076 92b9
00000020: 38e5 a03d 0c20 3dbd 9c4c 213d f6b8 b23d
00000030: a85c 2fbd ecc3 a43d 6049 a03b 38f5 8fbd
00000040: 808d 633c 50dc e1bd fe21 983d 80f4 bdbc
00000050: 169b dbbd 68ac 2c3d 00ae 913d fcdd 3ebd
00000060: c846 d9bc f0d1 aa3d 4e26 d7bd f416 a2bd
00000070: 1e4b dc3d e8c7 a53d 9e6d 81bd 5c04 f63d
00000080: 000e 823a d0a5 2cbd da42 b53d 9492 383d
00000090: 8264 8dbd e8b3 673d 907a 2d3d fcdc 983d
000000a0: 2cf3 e8bd 1eb3 a13d 34b6 db3d 70f4 723c
000000b0: 1496 ef3d 94e0 823d 746c 4cbd c8a0 a53d
000000c0: 60d1 683d f0b9 c7bd 80a3 0dbb 5070 723c
000000d0: bc7d 81bd 18e4 b6bd 667e f7bd b66c a43d
000000e0: 4690 e63d f6e6 b83d 20ad e5bb 726c f0bd
000000f0: d4a5 173d 6808 913d 0ebd f6bd 88fb a13d
00000100: 6001 d3bb 9024 8f3c 6696 c13d 1030 1bbc
00000110: 8c02 cb3d 88e1 f03c e43e 5c3d 00e0 683b
00000120: 44f0 223d 1cb5 2e3d 3cfe 783d eaf6 c8bd
00000130: ccb8 b73d 9475 783d 746e 45bd 8406 abbd
00000140: aced 1a3d 0098 6b3c 447e 5dbd 284c e13d
00000150: c036 413c 80e5 5cbb e0c6 8b3b 20c7 24bd
00000160: 0ca4 cd3d c8f6 d63c 8064 a8ba c06b edbb
00000170: 40f8 1ebb c057 733b d247 dcbd 9612 ebbd
00000180: 682f 0a3d cc26 85bd 08fa e43d f080 fabc
00000190: e026 ac3b c0e6 57bc fade af3d 0073 423a
000001a0: 429c 963d 384b 7e3d 5e56 b4bd d643 a43d
000001b0: c62f d63d 9c36 c43d 688c 8b3d 940a 3c3d
000001c0: 78d5 14bd 021b fbbd 282a d0bd 8229 e63d
000001d0: 20da 8dbb 9474 f0bd f0f5 583c 88d0 d2bc
000001e0: 6e18 98bd d02e abbc 0c4b 123d 48c3 dcbc
000001f0: e4d5 e8bd 5459 643d 6a1b 823d 48a4 3fbd
00000200: 50ce 253c d06a 343c d09d 22bd 9a38 cb3d
00000210: a03f 333d 90e2 4cbc d87a f13c c0cd 6ebb
00000220: d821 473d 0a11 b03d 7c24 c9bd d0d7 22bc
00000230: 28fb d73c 02ca bc3d ca84 8dbd 9afe cabd
00000240: 305f 813c b05b 8ebc 14ed 50bd 9854 e83d
00000250: 60eb dc3c 60fe 18bd 321e df3d f2c6 913d
00000260: 8e58 e0bd 3cc3 eabd ace6 b53d 4046 d93b
00000270: 6c0b 29bd d891 8e3d 08f2 65bd 6c59 bf3d
00000280: 08e5 85bc 80c9 183d 005b 6e3c 3a90 fcbd
00000290: fadd e2bd eacd b13d 9c93 2b3d 180d a63d
000002a0: c0bb aa3d aa05 e53d a0d6 be3d 10c0 c83d
000002b0: ba4c f0bd bc97 9c3d a813 b43c e079 9d3d
000002c0: 80fd f5bd 24bc 083d a0ef da3c c0b3 df3c
000002d0: c063 11bd 609f 963c 9c94 91bd 5e26 9c3d
000002e0: e47c 153d 2840 d13d 80c2 b6bc 0055 6abd
000002f0: f842 da3d 5050 febd d81c b83d 56d0 8b3d
00000300: 0043 7f3d 8415 7b3d 489b ed3c 2a1f cf3d
00000310: 008d a43d b04e 3b3c c61b bc3d 046e b9bd
00000320: 2025 1dbc 5821 fabc 4415 41bd 40eb d13d
00000330: 5cc2 1cbd 40a3 923d 58d9 613d 6c0a 28bd
00000340: 5038 19bc ced9 c2bd 30cb 063d 98c6 433d
00000350: a895 23bd aa68 89bd 2837 3d3d fa65 c4bd
00000360: 0834 213d cc55 babd 9c4a 633d 56a9 95bd
00000370: e050 c93d 46fe c1bd 20d1 c93b 7c78 823d
00000380: cc6f d73d b07e cf3d 7ca2 163d 0091 97bb
00000390: 34e7 673d 12a3 9f3d 6cf1 913d a092 f43c
000003a0: 048f 143d 7e0d d73d 0067 cfba 5852 ad3d
000003b0: 1a27 f3bd a09e fcbd 448b da3d 40a1 2dbd
000003c0: 1446 823d dc8e e43d 282e ed3c 80dd 6bbd
000003d0: bc1e 3dbd 740a ba3d eeb4 c7bd ba7c 86bd
000003e0: a830 b63c ac2e 47bd aab1 ccbd aa95 b03d
000003f0: 4cf8 553d 08ea cf3c be7a aa3d 42f8 e5bd
0.032830358 -0.06192735 0.09490603 0.016098127 -0.098961696 0.10866013 0.066463634 -0.00027935207
0.0785622 -0.04617314 0.0393797 0.08726685 -0.042812973 0.08045182 0.0048915595 -0.07029194
0.013888717 -0.110283494 0.074283585 -0.023187876 -0.1072294 0.042156607 0.07113266 -0.04659842
-0.026523009 0.08340824 -0.10505353 -0.07914534 0.10756515 0.0809477 -0.06319736 0.1201255
0.0009922385 -0.04215032 0.088506415 0.045061663 -0.06903936 0.056568056 0.042353213 0.074640244
-0.11374506 0.07895492 0.10728112 0.014828786 0.11698547 0.06390491 -0.049908116 0.08087307
0.0568403 -0.09752262 -0.0021612346 0.014797285 -0.0632281 -0.08930224 -0.120846555 0.080285475
0.11257987 0.09028427 -0.0070091635 -0.11739434 0.03702338 0.070816815 -0.12047778 0.07909304
-0.006439373 0.017473489 0.09452514 -0.009471908 0.09912595 0.029404417 0.053770915 0.0035533905
0.039779916 0.042653188 0.06078933 -0.0981272 0.08970794 0.060659006 -0.04820104 -0.08350852
0.037824318 0.014379501 -0.054075494 0.11000854 0.011792839 -0.0033706129 0.004265651 -0.040228963
0.10041055 0.026240721 -0.0012847334 -0.007245511 -0.0024256855 0.003713116 -0.10755886 -0.11478154
0.033736616 -0.065015405 0.11180502 -0.03057906 0.0052536577 -0.013177574 0.08587451 0.0007417649
0.073540226 0.062083453 -0.08805536 0.08020751 0.10458331 0.095807284 0.0681389 0.045908526
-0.036336392 -0.12261011 -0.10164291 0.11238386 -0.004328981 -0.117409855 0.01324223 -0.025734201
-0.074265346 -0.020896345 0.0357161 -0.026948586 -0.113689214 0.055749252 0.06352885 -0.04678753
0.0101199895 0.011011794 -0.039701283 0.09922905 0.04376185 -0.012505189 0.029477522 -0.0036438555
0.04861626 0.08597 -0.09821412 -0.009939149 0.026364878 0.092182174 -0.06910093 -0.09911843
0.01579246 -0.017377704 -0.051007345 0.1134426 0.026967704 -0.037351966 0.10894431 0.07118024
-0.109543905 -0.11463019 0.08881888 0.006630689 -0.04127066 0.06961411 -0.056139022 0.09343228
-0.016344562 0.03730154 0.014548063 -0.123321965 -0.11077495 0.08681853 0.04188882 0.08107966
0.08336592 0.11182721 0.0931828 0.09802258 -0.117333844 0.076461285 0.02198203 0.076892614
-0.12011242 0.03338255 0.02672559 0.027307391 -0.03549552 0.018386543 -0.07108423 0.076245055
0.036496058 0.10217315 -0.022309542 -0.05720997 0.106573045 -0.12417662 0.089898765 0.06826846
0.062319756 0.061299816 0.029004708 0.10113366 0.08034706 0.011432335 0.09184985 -0.09054187
-0.009591371 -0.030533478 -0.04713942 0.102499485 -0.038271293 0.07160044 0.055138916 -0.041025564
-0.009351805 -0.09514199 0.03290862 0.047796816 -0.039937645 -0.06709416 0.04619518 -0.09589763
0.03935626 -0.09098396 0.055491075 -0.07307689 0.09829879 -0.09472327 0.006158963 0.06370637
0.105193704 0.101315856 0.03677605 -0.0046254396 0.056616977 0.07794775 0.07126126 0.029855072
0.036269203 0.1050062 -0.0015823543 0.084629714 -0.118726924 -0.12334943 0.10671094 -0.042390108
0.063610226 0.11160061 0.028952673 -0.057584286 -0.04617189 0.09084025 -0.097513065 -0.065667585
0.022239998 -0.048628494 -0.09994824 0.08622296 0.052238747 0.02538015 0.083241925 -0.11228992

fc2.bias f4 [32]
00000000: 7494 c8bd 1c7c bc3d 3c87 5bbd fc19 cb3d
00000010: c4cb 6ebd f6b4 82bd e4c3 a93d a0eb b03c
00000020: ec05 54bd 68d8 a93c 30fb e3bd b0eb d33d
00000030: 70d9 dcbc c655 b6bd da3b d83d 08aa e43d
00000040: 9027 dfbc 00e1 d9bd ac56 99bd c030 b03b
00000050: b0e6 f73d 687f d5bd 9077 763c ca7d d03d
00000060: 005f 67bd e89f 173d 9031 44bd 8c07 703d
00000070: 5050 4c3c 0621 89bd 4605 ea3d a492 ee3d
-0.0979394 0.092033595 -0.053595766 0.099170655 -0.058299795 -0.06382172 0.08289316 0.02159673
-0.05176346 0.020733073 -0.111318946 0.10347688 -0.026959151 -0.08903079 0.10558291 0.111652434
-0.027240545 -0.106386185 -0.074872345 0.005376905 0.12104547 -0.104246914 0.015043154 0.10180242
-0.056487083 0.037017733 -0.04789883 0.058600947 0.01247032 -0.06695752 0.11426787 0.11649063

fc3.weight f4 [3, 32]
00000000: 9cf3 803d 2a9b c0bd c077 0cbc 1044 1fbe
00000010: 2037 223d 7ac7 21be f470 4a3d c61e ebbd
00000020: ec94 65bd f4af 46bd 72a0 bb3d e345 193e
00000030: e118 0a3e 009a d33a c92c 1c3e 40c6 98bc
00000040: 656d 80bd c88a 443d 602e e5bb c84e b6bc
00000050: 3003 2b3d 6314 203e 10c6 553c 83e5 193e
00000060: e034 bc3b 165c c03d e4a9 473d 48a9 f73c
00000070: 9a05 fa3d 6a9a 28be 916e dcbd e002 efbd
00000080: cf11 2a3e e9f5 80bd 29a6 22be 047c 02be
00000090: 88d9 6f3d c16b 9cbd 3c02 8a3d 2c69 65bd
000000a0: cc00 06bd a046 bbbd f74c 0b3e dae7 b83d
000000b0: 169d d33d 8b51 103e 30b5 193c fbe0 dbbd
000000c0: 4498 58bd eeda f23d 55eb 303e cc2a ffbd
000000d0: 5df8 d2bd 3876 11be 3fe3 0d3e 368f a33d
000000e0: 56aa b43d 1095 963c a5c4 0a3e b8fd 3ebd
000000f0: 1899 903d 5471 05bd ba0d c73d 676a 2e3e
00000100: c00b 9bbd 143a 12bd d092 49bd 8a6b edbd
00000110: 00c3 baba d241 c33d ccdb 643d c28c 9f3d
00000120: 1ab9 8a3d c803 05bd fde3 97bd 5e31 9e3d
00000130: 86a6 bc3d e04b a1bd 7940 1f3e 6894 45bd
00000140: c94f d6bd 40b7 69bb 706a 64bd 4aeb aa3d
00000150: 602d dfbd d821 a8bc 36eb cd3d 941b 0ebd
00000160: d834 1f3d 2136 d4bd 2b47 2cbe ce65 ab3d
00000170: 401a d2bc 65f5 323e 4391 14be 9214 1dbe
0.06296465 -0.09404595 -0.0085734725 -0.15553308 0.039603353 -0.1579875 0.049424127 -0.11480479
-0.056050226 -0.048507646 0.09161462 0.14968066 0.13486053 0.0016143918 0.15251459 -0.01864922
-0.06270865 0.047983915 -0.0069940537 -0.022254363 0.041751087 0.15632777 0.01304771 0.15028958
0.005743608 0.09392564 0.048746005 0.030232087 0.122081 -0.16465154 -0.10763276 -0.1167047
0.16608356 -0.06296904 -0.15883698 -0.1274262 0.058557063 -0.0763774 0.067387074 -0.056008503
-0.032715604 -0.0914433 0.13603579 0.09028597 0.10332696 0.14093606 0.009381577 -0.10736271
-0.052879587 0.11858164 0.17277272 -0.12459335 -0.10301278 -0.14205253 0.13856219 0.079863
0.088215515 0.018381625 0.13551576 -0.046628684 0.0706045 -0.03257878 0.09719415 0.17032777
-0.075706005 -0.03569992 -0.049212277 -0.11592777 -0.0014248788 0.095340386 0.055873677 0.07790519
0.067735866 -0.03247431 -0.07416532 0.0772426 0.09211449 -0.078758 0.15551938 -0.048237234
-0.104644366 -0.0035662204 -0.05576557 0.08345659 -0.108973265 -0.02052395 0.100546286 -0.03469427
0.038868755 -0.10361887 -0.16824023 0.08369027 -0.025647283 0.17476423 -0.14508538 -0.15339878

fc3.bias f4 [3]
00000000: f8db a63c da20 a5bd 1a6d 98bd
0.020368561 -0.080629066 -0.074426845
